…
      "W0512 05:07:51.901981 140462660171584 deprecation.py:323] From /usr/local/lib/python3.6/dist-packages/tensorflow/python/ops/nn_impl.py:180: add_dispatch_support.<locals>.wrapper (from tensorflow.python.ops.array_ops) is deprecated and will be removed in a future version.\n",
      "Instructions for updating:\n",
      "Use tf.where in 2.0, which has the same broadcast rule as np.where\n"
     ]
    },
    {
     "name": "stdout",
     "output_type": "stream",
     "text": [
      "Model: \"sequential\"\n",
      "_________________________________________________________________\n",
      "Layer (type)                 Output Shape              Param #   \n",
      "=================================================================\n",
      "conv2d (Conv2D)              (None, 148, 148, 16)      448       \n",
      "_________________________________________________________________\n",
      "max_pooling2d (MaxPooling2D) (None, 74, 74, 16)        0         \n",
      "_________________________________________________________________\n",
      "conv2d_1 (Conv2D)            (None, 72, 72, 32)        4640      \n",
      "_________________________________________________________________\n",
      "max_pooling2d_1 (MaxPooling2 (None, 36, 36, 32)        0         \n",
      "_________________________________________________________________\n",
      "conv2d_2 (Conv2D)            (None, 34, 34, 64)        18496     \n",
      "_________________________________________________________________\n",
      "max_pooling2d_2 (MaxPooling2 (None, 17, 17, 64)        0         \n",
      "_________________________________________________________________\n",
      "flatten (Flatten)            (None, 18496)             0         \n",
      "_________________________________________________________________\n",
      "dense (Dense)                (None, 512)               9470464   \n",
      "_________________________________________________________________\n",
      "dense_1 (Dense)              (None, 1)                 513       \n",
      "=================================================================\n",
      "Total params: 9,494,561\n",
      "Trainable params: 9,494,561\n",
      "Non-trainable params: 0\n",
      "_________________________________________________________________\n",
      "None\n",
      "Found 80 images belonging to 2 classes.\n",
      "Epoch 1/15\n",
      "8/8 [==============================] - 4s 523ms/step - loss: 2.2309 - acc: 0.5875\n",
…
