…
    "pre_trained_model = InceptionV3(\n",
    "    input_shape=(150, 150, 3),\n",
    "    include_top=False,\n",
    "    weights=None\n",
    ") # Your Code Here\n",
    "\n",
    "pre_trained_model.load_weights(local_weights_file)\n",
    "\n",
    "# Make all the layers in the pre-trained model non-trainable\n",
    "for layer in pre_trained_model.layers:\n",
    "  layer.trainable = False  # Your Code Here\n",
    "  \n",
    "# Print the model summary\n",
    "#pre_trained_model.summary()\n",
    "\n",
    "# Expected Output is extremely large, but should end with:\n",
    "\n",
    "#batch_normalization_v1_281 (Bat (None, 3, 3, 192)    576         conv2d_281[0][0]                 \n",
    "#__________________________________________________________________________________________________\n",
    "#activation_273 (Activation)     (None, 3, 3, 320)    0           batch_normalization_v1_273[0][0] \n",
    "#__________________________________________________________________________________________________\n",
    "#mixed9_1 (Concatenate)          (None, 3, 3, 768)    0           activation_275[0][0]             \n",
    "#                                                                 activation_276[0][0]             \n",
    "#__________________________________________________________________________________________________\n",
    "#concatenate_5 (Concatenate)     (None, 3, 3, 768)    0           activation_279[0][0]             \n",
    "#                                                                 activation_280[0][0]             \n",
    "#__________________________________________________________________________________________________\n",
    "#activation_281 (Activation)     (None, 3, 3, 192)    0           batch_normalization_v1_281[0][0] \n",
    "#__________________________________________________________________________________________________\n",
    "#mixed10 (Concatenate)           (None, 3, 3, 2048)   0           activation_273[0][0]             \n",
    "#                                                                 mixed9_1[0][0]                   \n",
    "#                                                                 concatenate_5[0][0]              \n",
    "#                                                                 activation_281[0][0]             \n",
    "#==================================================================================================\n",
…
   "execution_count": 5,
   "metadata": {
    "colab": {},
    "colab_type": "code",
    "id": "BMXb913pbvFg"
   },
   "outputs": [
    {
     "name": "stdout",
     "output_type": "stream",
     "text": [
      "Model: \"model\"\n",
      "__________________________________________________________________________________________________\n",
      "Layer (type)                    Output Shape         Param #     Connected to                     \n",
      "==================================================================================================\n",
      "input_1 (InputLayer)            [(None, 150, 150, 3) 0                                            \n",
      "__________________________________________________________________________________________________\n",
      "conv2d (Conv2D)                 (None, 74, 74, 32)   864         input_1[0][0]                    \n",
      "__________________________________________________________________________________________________\n",
      "batch_normalization_v1 (BatchNo (None, 74, 74, 32)   96          conv2d[0][0]                     \n",
      "__________________________________________________________________________________________________\n",
      "activation (Activation)         (None, 74, 74, 32)   0           batch_normalization_v1[0][0]     \n",
      "__________________________________________________________________________________________________\n",
      "conv2d_1 (Conv2D)               (None, 72, 72, 32)   9216        activation[0][0]                 \n",
      "__________________________________________________________________________________________________\n",
      "batch_normalization_v1_1 (Batch (None, 72, 72, 32)   96          conv2d_1[0][0]                   \n",
      "__________________________________________________________________________________________________\n",
      "activation_1 (Activation)       (None, 72, 72, 32)   0           batch_normalization_v1_1[0][0]   \n",
      "__________________________________________________________________________________________________\n",
      "conv2d_2 (Conv2D)               (None, 72, 72, 64)   18432       activation_1[0][0]               \n",
      "__________________________________________________________________________________________________\n",
      "batch_normalization_v1_2 (Batch (None, 72, 72, 64)   192         conv2d_2[0][0]                   \n",
      "__________________________________________________________________________________________________\n",
      "activation_2 (Activation)       (None, 72, 72, 64)   0           batch_normalization_v1_2[0][0]   \n",
      "__________________________________________________________________________________________________\n",
      "max_pooling2d (MaxPooling2D)    (None, 35, 35, 64)   0           activation_2[0][0]               \n",
      "__________________________________________________________________________________________________\n",
      "conv2d_3 (Conv2D)               (None, 35, 35, 80)   5120        max_pooling2d[0][0]              \n",
      "__________________________________________________________________________________________________\n",
      "batch_normalization_v1_3 (Batch (None, 35, 35, 80)   240         conv2d_3[0][0]                   \n",
      "__________________________________________________________________________________________________\n",
      "activation_3 (Activation)       (None, 35, 35, 80)   0           batch_normalization_v1_3[0][0]   \n",
      "__________________________________________________________________________________________________\n",
      "conv2d_4 (Conv2D)               (None, 33, 33, 192)  138240      activation_3[0][0]               \n",
      "__________________________________________________________________________________________________\n",
      "batch_normalization_v1_4 (Batch (None, 33, 33, 192)  576         conv2d_4[0][0]                   \n",
      "__________________________________________________________________________________________________\n",
      "activation_4 (Activation)       (None, 33, 33, 192)  0           batch_normalization_v1_4[0][0]   \n",
      "__________________________________________________________________________________________________\n",
      "max_pooling2d_1 (MaxPooling2D)  (None, 16, 16, 192)  0           activation_4[0][0]               \n",
      "__________________________________________________________________________________________________\n",
      "conv2d_8 (Conv2D)               (None, 16, 16, 64)   12288       max_pooling2d_1[0][0]            \n",
      "__________________________________________________________________________________________________\n",
      "batch_normalization_v1_8 (Batch (None, 16, 16, 64)   192         conv2d_8[0][0]                   \n",
      "__________________________________________________________________________________________________\n",
      "activation_8 (Activation)       (None, 16, 16, 64)   0           batch_normalization_v1_8[0][0]   \n",
      "__________________________________________________________________________________________________\n",
      "conv2d_6 (Conv2D)               (None, 16, 16, 48)   9216        max_pooling2d_1[0][0]            \n",
      "__________________________________________________________________________________________________\n",
      "conv2d_9 (Conv2D)               (None, 16, 16, 96)   55296       activation_8[0][0]               \n",
      "__________________________________________________________________________________________________\n",
      "batch_normalization_v1_6 (Batch (None, 16, 16, 48)   144         conv2d_6[0][0]                   \n",
      "__________________________________________________________________________________________________\n",
      "batch_normalization_v1_9 (Batch (None, 16, 16, 96)   288         conv2d_9[0][0]                   \n",
      "__________________________________________________________________________________________________\n",
      "activation_6 (Activation)       (None, 16, 16, 48)   0           batch_normalization_v1_6[0][0]   \n",
      "__________________________________________________________________________________________________\n",
      "activation_9 (Activation)       (None, 16, 16, 96)   0           batch_normalization_v1_9[0][0]   \n",
      "__________________________________________________________________________________________________\n",
      "average_pooling2d (AveragePooli (None, 16, 16, 192)  0           max_pooling2d_1[0][0]            \n",
      "__________________________________________________________________________________________________\n",
      "conv2d_5 (Conv2D)               (None, 16, 16, 64)   12288       max_pooling2d_1[0][0]            \n",
      "__________________________________________________________________________________________________\n",
      "conv2d_7 (Conv2D)               (None, 16, 16, 64)   76800       activation_6[0][0]               \n",
      "__________________________________________________________________________________________________\n",
      "conv2d_10 (Conv2D)              (None, 16, 16, 96)   82944       activation_9[0][0]               \n",
      "__________________________________________________________________________________________________\n",
      "conv2d_11 (Conv2D)              (None, 16, 16, 32)   6144        average_pooling2d[0][0]          \n",
      "__________________________________________________________________________________________________\n",
      "batch_normalization_v1_5 (Batch (None, 16, 16, 64)   192         conv2d_5[0][0]                   \n",
      "__________________________________________________________________________________________________\n",
      "batch_normalization_v1_7 (Batch (None, 16, 16, 64)   192         conv2d_7[0][0]                   \n",
      "__________________________________________________________________________________________________\n",
      "batch_normalization_v1_10 (Batc (None, 16, 16, 96)   288         conv2d_10[0][0]                  \n",
      "__________________________________________________________________________________________________\n",
      "batch_normalization_v1_11 (Batc (None, 16, 16, 32)   96          conv2d_11[0][0]                  \n",
      "__________________________________________________________________________________________________\n",
      "activation_5 (Activation)       (None, 16, 16, 64)   0           batch_normalization_v1_5[0][0]   \n",
      "__________________________________________________________________________________________________\n",
      "activation_7 (Activation)       (None, 16, 16, 64)   0           batch_normalization_v1_7[0][0]   \n",
      "__________________________________________________________________________________________________\n",
      "activation_10 (Activation)      (None, 16, 16, 96)   0           batch_normalization_v1_10[0][0]  \n",
      "__________________________________________________________________________________________________\n",
      "activation_11 (Activation)      (None, 16, 16, 32)   0           batch_normalization_v1_11[0][0]  \n",
      "__________________________________________________________________________________________________\n",
      "mixed0 (Concatenate)            (None, 16, 16, 256)  0           activation_5[0][0]               \n",
      "                                                                 activation_7[0][0]               \n",
      "                                                                 activation_10[0][0]              \n",
      "                                                                 activation_11[0][0]              \n",
      "__________________________________________________________________________________________________\n",
      "conv2d_15 (Conv2D)              (None, 16, 16, 64)   16384       mixed0[0][0]                     \n",
      "__________________________________________________________________________________________________\n",
      "batch_normalization_v1_15 (Batc (None, 16, 16, 64)   192         conv2d_15[0][0]                  \n",
      "__________________________________________________________________________________________________\n",
      "activation_15 (Activation)      (None, 16, 16, 64)   0           batch_normalization_v1_15[0][0]  \n",
      "__________________________________________________________________________________________________\n",
      "conv2d_13 (Conv2D)              (None, 16, 16, 48)   12288       mixed0[0][0]                     \n",
      "__________________________________________________________________________________________________\n",
      "conv2d_16 (Conv2D)              (None, 16, 16, 96)   55296       activation_15[0][0]              \n",
      "__________________________________________________________________________________________________\n",
      "batch_normalization_v1_13 (Batc (None, 16, 16, 48)   144         conv2d_13[0][0]                  \n",
      "__________________________________________________________________________________________________\n",
      "batch_normalization_v1_16 (Batc (None, 16, 16, 96)   288         conv2d_16[0][0]                  \n",
      "__________________________________________________________________________________________________\n",
      "activation_13 (Activation)      (None, 16, 16, 48)   0           batch_normalization_v1_13[0][0]  \n",
      "__________________________________________________________________________________________________\n",
      "activation_16 (Activation)      (None, 16, 16, 96)   0           batch_normalization_v1_16[0][0]  \n",
      "__________________________________________________________________________________________________\n",
      "average_pooling2d_1 (AveragePoo (None, 16, 16, 256)  0           mixed0[0][0]                     \n",
      "__________________________________________________________________________________________________\n",
      "conv2d_12 (Conv2D)              (None, 16, 16, 64)   16384       mixed0[0][0]                     \n",
      "__________________________________________________________________________________________________\n",
      "conv2d_14 (Conv2D)              (None, 16, 16, 64)   76800       activation_13[0][0]              \n",
      "__________________________________________________________________________________________________\n",
      "conv2d_17 (Conv2D)              (None, 16, 16, 96)   82944       activation_16[0][0]              \n",
      "__________________________________________________________________________________________________\n",
      "conv2d_18 (Conv2D)              (None, 16, 16, 64)   16384       average_pooling2d_1[0][0]        \n",
      "__________________________________________________________________________________________________\n",
      "batch_normalization_v1_12 (Batc (None, 16, 16, 64)   192         conv2d_12[0][0]                  \n",
      "__________________________________________________________________________________________________\n",
      "batch_normalization_v1_14 (Batc (None, 16, 16, 64)   192         conv2d_14[0][0]                  \n",
      "__________________________________________________________________________________________________\n",
      "batch_normalization_v1_17 (Batc (None, 16, 16, 96)   288         conv2d_17[0][0]                  \n",
      "__________________________________________________________________________________________________\n",
      "batch_normalization_v1_18 (Batc (None, 16, 16, 64)   192         conv2d_18[0][0]                  \n",
      "__________________________________________________________________________________________________\n",
      "activation_12 (Activation)      (None, 16, 16, 64)   0           batch_normalization_v1_12[0][0]  \n",
      "__________________________________________________________________________________________________\n",
      "activation_14 (Activation)      (None, 16, 16, 64)   0           batch_normalization_v1_14[0][0]  \n",
      "__________________________________________________________________________________________________\n",
      "activation_17 (Activation)      (None, 16, 16, 96)   0           batch_normalization_v1_17[0][0]  \n",
      "__________________________________________________________________________________________________\n",
      "activation_18 (Activation)      (None, 16, 16, 64)   0           batch_normalization_v1_18[0][0]  \n",
      "__________________________________________________________________________________________________\n",
      "mixed1 (Concatenate)            (None, 16, 16, 288)  0           activation_12[0][0]              \n",
      "                                                                 activation_14[0][0]              \n",
      "                                                                 activation_17[0][0]              \n",
      "                                                                 activation_18[0][0]              \n",
      "__________________________________________________________________________________________________\n",
      "conv2d_22 (Conv2D)              (None, 16, 16, 64)   18432       mixed1[0][0]                     \n",
      "__________________________________________________________________________________________________\n",
      "batch_normalization_v1_22 (Batc (None, 16, 16, 64)   192         conv2d_22[0][0]                  \n",
      "__________________________________________________________________________________________________\n",
      "activation_22 (Activation)      (None, 16, 16, 64)   0           batch_normalization_v1_22[0][0]  \n",
      "__________________________________________________________________________________________________\n",
      "conv2d_20 (Conv2D)              (None, 16, 16, 48)   13824       mixed1[0][0]                     \n",
      "__________________________________________________________________________________________________\n",
      "conv2d_23 (Conv2D)              (None, 16, 16, 96)   55296       activation_22[0][0]              \n",
      "__________________________________________________________________________________________________\n",
      "batch_normalization_v1_20 (Batc (None, 16, 16, 48)   144         conv2d_20[0][0]                  \n",
      "__________________________________________________________________________________________________\n",
      "batch_normalization_v1_23 (Batc (None, 16, 16, 96)   288         conv2d_23[0][0]                  \n",
      "__________________________________________________________________________________________________\n",
      "activation_20 (Activation)      (None, 16, 16, 48)   0           batch_normalization_v1_20[0][0]  \n",
      "__________________________________________________________________________________________________\n",
      "activation_23 (Activation)      (None, 16, 16, 96)   0           batch_normalization_v1_23[0][0]  \n",
      "__________________________________________________________________________________________________\n",
      "average_pooling2d_2 (AveragePoo (None, 16, 16, 288)  0           mixed1[0][0]                     \n",
      "__________________________________________________________________________________________________\n",
      "conv2d_19 (Conv2D)              (None, 16, 16, 64)   18432       mixed1[0][0]                     \n",
      "__________________________________________________________________________________________________\n",
      "conv2d_21 (Conv2D)              (None, 16, 16, 64)   76800       activation_20[0][0]              \n",
      "__________________________________________________________________________________________________\n",
      "conv2d_24 (Conv2D)              (None, 16, 16, 96)   82944       activation_23[0][0]              \n",
      "__________________________________________________________________________________________________\n",
      "conv2d_25 (Conv2D)              (None, 16, 16, 64)   18432       average_pooling2d_2[0][0]        \n",
      "__________________________________________________________________________________________________\n",
      "batch_normalization_v1_19 (Batc (None, 16, 16, 64)   192         conv2d_19[0][0]                  \n",
      "__________________________________________________________________________________________________\n",
      "batch_normalization_v1_21 (Batc (None, 16, 16, 64)   192         conv2d_21[0][0]                  \n",
      "__________________________________________________________________________________________________\n",
      "batch_normalization_v1_24 (Batc (None, 16, 16, 96)   288         conv2d_24[0][0]                  \n",
      "__________________________________________________________________________________________________\n",
      "batch_normalization_v1_25 (Batc (None, 16, 16, 64)   192         conv2d_25[0][0]                  \n",
      "__________________________________________________________________________________________________\n",
      "activation_19 (Activation)      (None, 16, 16, 64)   0           batch_normalization_v1_19[0][0]  \n",
      "__________________________________________________________________________________________________\n",
      "activation_21 (Activation)      (None, 16, 16, 64)   0           batch_normalization_v1_21[0][0]  \n",
      "__________________________________________________________________________________________________\n",
      "activation_24 (Activation)      (None, 16, 16, 96)   0           batch_normalization_v1_24[0][0]  \n",
      "__________________________________________________________________________________________________\n",
      "activation_25 (Activation)      (None, 16, 16, 64)   0           batch_normalization_v1_25[0][0]  \n",
      "__________________________________________________________________________________________________\n",
      "mixed2 (Concatenate)            (None, 16, 16, 288)  0           activation_19[0][0]              \n",
      "                                                                 activation_21[0][0]              \n",
      "                                                                 activation_24[0][0]              \n",
      "                                                                 activation_25[0][0]              \n",
      "__________________________________________________________________________________________________\n",
      "conv2d_27 (Conv2D)              (None, 16, 16, 64)   18432       mixed2[0][0]                     \n",
      "__________________________________________________________________________________________________\n",
      "batch_normalization_v1_27 (Batc (None, 16, 16, 64)   192         conv2d_27[0][0]                  \n",
      "__________________________________________________________________________________________________\n",
      "activation_27 (Activation)      (None, 16, 16, 64)   0           batch_normalization_v1_27[0][0]  \n",
      "__________________________________________________________________________________________________\n",
      "conv2d_28 (Conv2D)              (None, 16, 16, 96)   55296       activation_27[0][0]              \n",
      "__________________________________________________________________________________________________\n",
      "batch_normalization_v1_28 (Batc (None, 16, 16, 96)   288         conv2d_28[0][0]                  \n",
      "__________________________________________________________________________________________________\n",
      "activation_28 (Activation)      (None, 16, 16, 96)   0           batch_normalization_v1_28[0][0]  \n",
      "__________________________________________________________________________________________________\n",
      "conv2d_26 (Conv2D)              (None, 7, 7, 384)    995328      mixed2[0][0]                     \n",
      "__________________________________________________________________________________________________\n",
      "conv2d_29 (Conv2D)              (None, 7, 7, 96)     82944       activation_28[0][0]              \n",
      "__________________________________________________________________________________________________\n",
      "batch_normalization_v1_26 (Batc (None, 7, 7, 384)    1152        conv2d_26[0][0]                  \n",
      "__________________________________________________________________________________________________\n",
      "batch_normalization_v1_29 (Batc (None, 7, 7, 96)     288         conv2d_29[0][0]                  \n",
      "__________________________________________________________________________________________________\n",
      "activation_26 (Activation)      (None, 7, 7, 384)    0           batch_normalization_v1_26[0][0]  \n",
      "__________________________________________________________________________________________________\n",
      "activation_29 (Activation)      (None, 7, 7, 96)     0           batch_normalization_v1_29[0][0]  \n",
      "__________________________________________________________________________________________________\n",
      "max_pooling2d_2 (MaxPooling2D)  (None, 7, 7, 288)    0           mixed2[0][0]                     \n",
      "__________________________________________________________________________________________________\n",
      "mixed3 (Concatenate)            (None, 7, 7, 768)    0           activation_26[0][0]              \n",
      "                                                                 activation_29[0][0]              \n",
      "                                                                 max_pooling2d_2[0][0]            \n",
      "__________________________________________________________________________________________________\n",
      "conv2d_34 (Conv2D)              (None, 7, 7, 128)    98304       mixed3[0][0]                     \n",
      "__________________________________________________________________________________________________\n",
      "batch_normalization_v1_34 (Batc (None, 7, 7, 128)    384         conv2d_34[0][0]                  \n",
      "__________________________________________________________________________________________________\n",
      "activation_34 (Activation)      (None, 7, 7, 128)    0           batch_normalization_v1_34[0][0]  \n",
      "__________________________________________________________________________________________________\n",
      "conv2d_35 (Conv2D)              (None, 7, 7, 128)    114688      activation_34[0][0]              \n",
      "__________________________________________________________________________________________________\n",
      "batch_normalization_v1_35 (Batc (None, 7, 7, 128)    384         conv2d_35[0][0]                  \n",
      "__________________________________________________________________________________________________\n",
      "activation_35 (Activation)      (None, 7, 7, 128)    0           batch_normalization_v1_35[0][0]  \n",
      "__________________________________________________________________________________________________\n",
      "conv2d_31 (Conv2D)              (None, 7, 7, 128)    98304       mixed3[0][0]                     \n",
      "__________________________________________________________________________________________________\n",
      "conv2d_36 (Conv2D)              (None, 7, 7, 128)    114688      activation_35[0][0]              \n",
      "__________________________________________________________________________________________________\n",
      "batch_normalization_v1_31 (Batc (None, 7, 7, 128)    384         conv2d_31[0][0]                  \n",
      "__________________________________________________________________________________________________\n",
      "batch_normalization_v1_36 (Batc (None, 7, 7, 128)    384         conv2d_36[0][0]                  \n",
      "__________________________________________________________________________________________________\n",
      "activation_31 (Activation)      (None, 7, 7, 128)    0           batch_normalization_v1_31[0][0]  \n",
      "__________________________________________________________________________________________________\n",
      "activation_36 (Activation)      (None, 7, 7, 128)    0           batch_normalization_v1_36[0][0]  \n",
      "__________________________________________________________________________________________________\n",
      "conv2d_32 (Conv2D)              (None, 7, 7, 128)    114688      activation_31[0][0]              \n",
      "__________________________________________________________________________________________________\n",
      "conv2d_37 (Conv2D)              (None, 7, 7, 128)    114688      activation_36[0][0]              \n",
      "__________________________________________________________________________________________________\n",
      "batch_normalization_v1_32 (Batc (None, 7, 7, 128)    384         conv2d_32[0][0]                  \n",
      "__________________________________________________________________________________________________\n",
      "batch_normalization_v1_37 (Batc (None, 7, 7, 128)    384         conv2d_37[0][0]                  \n",
      "__________________________________________________________________________________________________\n",
      "activation_32 (Activation)      (None, 7, 7, 128)    0           batch_normalization_v1_32[0][0]  \n",
      "__________________________________________________________________________________________________\n",
      "activation_37 (Activation)      (None, 7, 7, 128)    0           batch_normalization_v1_37[0][0]  \n",
      "__________________________________________________________________________________________________\n",
      "average_pooling2d_3 (AveragePoo (None, 7, 7, 768)    0           mixed3[0][0]                     \n",
      "__________________________________________________________________________________________________\n",
      "conv2d_30 (Conv2D)              (None, 7, 7, 192)    147456      mixed3[0][0]                     \n",
      "__________________________________________________________________________________________________\n",
      "conv2d_33 (Conv2D)              (None, 7, 7, 192)    172032      activation_32[0][0]              \n",
      "__________________________________________________________________________________________________\n",
      "conv2d_38 (Conv2D)              (None, 7, 7, 192)    172032      activation_37[0][0]              \n",
      "__________________________________________________________________________________________________\n",
      "conv2d_39 (Conv2D)              (None, 7, 7, 192)    147456      average_pooling2d_3[0][0]        \n",
      "__________________________________________________________________________________________________\n",
      "batch_normalization_v1_30 (Batc (None, 7, 7, 192)    576         conv2d_30[0][0]                  \n",
      "__________________________________________________________________________________________________\n",
      "batch_normalization_v1_33 (Batc (None, 7, 7, 192)    576         conv2d_33[0][0]                  \n",
      "__________________________________________________________________________________________________\n",
      "batch_normalization_v1_38 (Batc (None, 7, 7, 192)    576         conv2d_38[0][0]                  \n",
      "__________________________________________________________________________________________________\n",
      "batch_normalization_v1_39 (Batc (None, 7, 7, 192)    576         conv2d_39[0][0]                  \n",
      "__________________________________________________________________________________________________\n",
      "activation_30 (Activation)      (None, 7, 7, 192)    0           batch_normalization_v1_30[0][0]  \n",
      "__________________________________________________________________________________________________\n",
      "activation_33 (Activation)      (None, 7, 7, 192)    0           batch_normalization_v1_33[0][0]  \n",
      "__________________________________________________________________________________________________\n",
      "activation_38 (Activation)      (None, 7, 7, 192)    0           batch_normalization_v1_38[0][0]  \n",
      "__________________________________________________________________________________________________\n",
      "activation_39 (Activation)      (None, 7, 7, 192)    0           batch_normalization_v1_39[0][0]  \n",
      "__________________________________________________________________________________________________\n",
      "mixed4 (Concatenate)            (None, 7, 7, 768)    0           activation_30[0][0]              \n",
      "                                                                 activation_33[0][0]              \n",
      "                                                                 activation_38[0][0]              \n",
      "                                                                 activation_39[0][0]              \n",
      "__________________________________________________________________________________________________\n",
      "conv2d_44 (Conv2D)              (None, 7, 7, 160)    122880      mixed4[0][0]                     \n",
      "__________________________________________________________________________________________________\n",
      "batch_normalization_v1_44 (Batc (None, 7, 7, 160)    480         conv2d_44[0][0]                  \n",
      "__________________________________________________________________________________________________\n",
      "activation_44 (Activation)      (None, 7, 7, 160)    0           batch_normalization_v1_44[0][0]  \n",
      "__________________________________________________________________________________________________\n",
      "conv2d_45 (Conv2D)              (None, 7, 7, 160)    179200      activation_44[0][0]              \n",
      "__________________________________________________________________________________________________\n",
      "batch_normalization_v1_45 (Batc (None, 7, 7, 160)    480         conv2d_45[0][0]                  \n",
      "__________________________________________________________________________________________________\n",
      "activation_45 (Activation)      (None, 7, 7, 160)    0           batch_normalization_v1_45[0][0]  \n",
      "__________________________________________________________________________________________________\n",
      "conv2d_41 (Conv2D)              (None, 7, 7, 160)    122880      mixed4[0][0]                     \n",
      "__________________________________________________________________________________________________\n",
      "conv2d_46 (Conv2D)              (None, 7, 7, 160)    179200      activation_45[0][0]              \n",
      "__________________________________________________________________________________________________\n",
      "batch_normalization_v1_41 (Batc (None, 7, 7, 160)    480         conv2d_41[0][0]                  \n",
      "__________________________________________________________________________________________________\n",
      "batch_normalization_v1_46 (Batc (None, 7, 7, 160)    480         conv2d_46[0][0]                  \n",
      "__________________________________________________________________________________________________\n",
      "activation_41 (Activation)      (None, 7, 7, 160)    0           batch_normalization_v1_41[0][0]  \n",
      "__________________________________________________________________________________________________\n",
      "activation_46 (Activation)      (None, 7, 7, 160)    0           batch_normalization_v1_46[0][0]  \n",
      "__________________________________________________________________________________________________\n",
      "conv2d_42 (Conv2D)              (None, 7, 7, 160)    179200      activation_41[0][0]              \n",
      "__________________________________________________________________________________________________\n",
      "conv2d_47 (Conv2D)              (None, 7, 7, 160)    179200      activation_46[0][0]              \n",
      "__________________________________________________________________________________________________\n",
      "batch_normalization_v1_42 (Batc (None, 7, 7, 160)    480         conv2d_42[0][0]                  \n",
      "__________________________________________________________________________________________________\n",
      "batch_normalization_v1_47 (Batc (None, 7, 7, 160)    480         conv2d_47[0][0]                  \n",
      "__________________________________________________________________________________________________\n",
      "activation_42 (Activation)      (None, 7, 7, 160)    0           batch_normalization_v1_42[0][0]  \n",
      "__________________________________________________________________________________________________\n",
      "activation_47 (Activation)      (None, 7, 7, 160)    0           batch_normalization_v1_47[0][0]  \n",
      "__________________________________________________________________________________________________\n",
      "average_pooling2d_4 (AveragePoo (None, 7, 7, 768)    0           mixed4[0][0]                     \n",
      "__________________________________________________________________________________________________\n",
      "conv2d_40 (Conv2D)              (None, 7, 7, 192)    147456      mixed4[0][0]                     \n",
      "__________________________________________________________________________________________________\n",
      "conv2d_43 (Conv2D)              (None, 7, 7, 192)    215040      activation_42[0][0]              \n",
      "__________________________________________________________________________________________________\n",
      "conv2d_48 (Conv2D)              (None, 7, 7, 192)    215040      activation_47[0][0]              \n",
      "__________________________________________________________________________________________________\n",
      "conv2d_49 (Conv2D)              (None, 7, 7, 192)    147456      average_pooling2d_4[0][0]        \n",
      "__________________________________________________________________________________________________\n",
      "batch_normalization_v1_40 (Batc (None, 7, 7, 192)    576         conv2d_40[0][0]                  \n",
      "__________________________________________________________________________________________________\n",
      "batch_normalization_v1_43 (Batc (None, 7, 7, 192)    576         conv2d_43[0][0]                  \n",
      "__________________________________________________________________________________________________\n",
      "batch_normalization_v1_48 (Batc (None, 7, 7, 192)    576         conv2d_48[0][0]                  \n",
      "__________________________________________________________________________________________________\n",
      "batch_normalization_v1_49 (Batc (None, 7, 7, 192)    576         conv2d_49[0][0]                  \n",
      "__________________________________________________________________________________________________\n",
      "activation_40 (Activation)      (None, 7, 7, 192)    0           batch_normalization_v1_40[0][0]  \n",
      "__________________________________________________________________________________________________\n",
      "activation_43 (Activation)      (None, 7, 7, 192)    0           batch_normalization_v1_43[0][0]  \n",
      "__________________________________________________________________________________________________\n",
      "activation_48 (Activation)      (None, 7, 7, 192)    0           batch_normalization_v1_48[0][0]  \n",
      "__________________________________________________________________________________________________\n",
      "activation_49 (Activation)      (None, 7, 7, 192)    0           batch_normalization_v1_49[0][0]  \n",
      "__________________________________________________________________________________________________\n",
      "mixed5 (Concatenate)            (None, 7, 7, 768)    0           activation_40[0][0]              \n",
      "                                                                 activation_43[0][0]              \n",
      "                                                                 activation_48[0][0]              \n",
      "                                                                 activation_49[0][0]              \n",
      "__________________________________________________________________________________________________\n",
      "conv2d_54 (Conv2D)              (None, 7, 7, 160)    122880      mixed5[0][0]                     \n",
      "__________________________________________________________________________________________________\n",
      "batch_normalization_v1_54 (Batc (None, 7, 7, 160)    480         conv2d_54[0][0]                  \n",
      "__________________________________________________________________________________________________\n",
      "activation_54 (Activation)      (None, 7, 7, 160)    0           batch_normalization_v1_54[0][0]  \n",
      "__________________________________________________________________________________________________\n",
      "conv2d_55 (Conv2D)              (None, 7, 7, 160)    179200      activation_54[0][0]              \n",
      "__________________________________________________________________________________________________\n",
      "batch_normalization_v1_55 (Batc (None, 7, 7, 160)    480         conv2d_55[0][0]                  \n",
      "__________________________________________________________________________________________________\n",
      "activation_55 (Activation)      (None, 7, 7, 160)    0           batch_normalization_v1_55[0][0]  \n",
      "__________________________________________________________________________________________________\n",
      "conv2d_51 (Conv2D)              (None, 7, 7, 160)    122880      mixed5[0][0]                     \n",
      "__________________________________________________________________________________________________\n",
      "conv2d_56 (Conv2D)              (None, 7, 7, 160)    179200      activation_55[0][0]              \n",
      "__________________________________________________________________________________________________\n",
      "batch_normalization_v1_51 (Batc (None, 7, 7, 160)    480         conv2d_51[0][0]                  \n",
      "__________________________________________________________________________________________________\n",
      "batch_normalization_v1_56 (Batc (None, 7, 7, 160)    480         conv2d_56[0][0]                  \n",
      "__________________________________________________________________________________________________\n",
      "activation_51 (Activation)      (None, 7, 7, 160)    0           batch_normalization_v1_51[0][0]  \n",
      "__________________________________________________________________________________________________\n",
      "activation_56 (Activation)      (None, 7, 7, 160)    0           batch_normalization_v1_56[0][0]  \n",
      "__________________________________________________________________________________________________\n",
      "conv2d_52 (Conv2D)              (None, 7, 7, 160)    179200      activation_51[0][0]              \n",
      "__________________________________________________________________________________________________\n",
      "conv2d_57 (Conv2D)              (None, 7, 7, 160)    179200      activation_56[0][0]              \n",
      "__________________________________________________________________________________________________\n",
      "batch_normalization_v1_52 (Batc (None, 7, 7, 160)    480         conv2d_52[0][0]                  \n",
      "__________________________________________________________________________________________________\n",
      "batch_normalization_v1_57 (Batc (None, 7, 7, 160)    480         conv2d_57[0][0]                  \n",
      "__________________________________________________________________________________________________\n",
      "activation_52 (Activation)      (None, 7, 7, 160)    0           batch_normalization_v1_52[0][0]  \n",
      "__________________________________________________________________________________________________\n",
      "activation_57 (Activation)      (None, 7, 7, 160)    0           batch_normalization_v1_57[0][0]  \n",
      "__________________________________________________________________________________________________\n",
      "average_pooling2d_5 (AveragePoo (None, 7, 7, 768)    0           mixed5[0][0]                     \n",
      "__________________________________________________________________________________________________\n",
      "conv2d_50 (Conv2D)              (None, 7, 7, 192)    147456      mixed5[0][0]                     \n",
      "__________________________________________________________________________________________________\n",
      "conv2d_53 (Conv2D)              (None, 7, 7, 192)    215040      activation_52[0][0]              \n",
      "__________________________________________________________________________________________________\n",
      "conv2d_58 (Conv2D)              (None, 7, 7, 192)    215040      activation_57[0][0]              \n",
      "__________________________________________________________________________________________________\n",
      "conv2d_59 (Conv2D)              (None, 7, 7, 192)    147456      average_pooling2d_5[0][0]        \n",
      "__________________________________________________________________________________________________\n",
      "batch_normalization_v1_50 (Batc (None, 7, 7, 192)    576         conv2d_50[0][0]                  \n",
      "__________________________________________________________________________________________________\n",
      "batch_normalization_v1_53 (Batc (None, 7, 7, 192)    576         conv2d_53[0][0]                  \n",
      "__________________________________________________________________________________________________\n",
      "batch_normalization_v1_58 (Batc (None, 7, 7, 192)    576         conv2d_58[0][0]                  \n",
      "__________________________________________________________________________________________________\n",
      "batch_normalization_v1_59 (Batc (None, 7, 7, 192)    576         conv2d_59[0][0]                  \n",
      "__________________________________________________________________________________________________\n",
      "activation_50 (Activation)      (None, 7, 7, 192)    0           batch_normalization_v1_50[0][0]  \n",
      "__________________________________________________________________________________________________\n",
      "activation_53 (Activation)      (None, 7, 7, 192)    0           batch_normalization_v1_53[0][0]  \n",
      "__________________________________________________________________________________________________\n",
      "activation_58 (Activation)      (None, 7, 7, 192)    0           batch_normalization_v1_58[0][0]  \n",
      "__________________________________________________________________________________________________\n",
      "activation_59 (Activation)      (None, 7, 7, 192)    0           batch_normalization_v1_59[0][0]  \n",
      "__________________________________________________________________________________________________\n",
      "mixed6 (Concatenate)            (None, 7, 7, 768)    0           activation_50[0][0]              \n",
      "                                                                 activation_53[0][0]              \n",
      "                                                                 activation_58[0][0]              \n",
      "                                                                 activation_59[0][0]              \n",
      "__________________________________________________________________________________________________\n",
      "conv2d_64 (Conv2D)              (None, 7, 7, 192)    147456      mixed6[0][0]                     \n",
      "__________________________________________________________________________________________________\n",
      "batch_normalization_v1_64 (Batc (None, 7, 7, 192)    576         conv2d_64[0][0]                  \n",
      "__________________________________________________________________________________________________\n",
      "activation_64 (Activation)      (None, 7, 7, 192)    0           batch_normalization_v1_64[0][0]  \n",
      "__________________________________________________________________________________________________\n",
      "conv2d_65 (Conv2D)              (None, 7, 7, 192)    258048      activation_64[0][0]              \n",
      "__________________________________________________________________________________________________\n",
      "batch_normalization_v1_65 (Batc (None, 7, 7, 192)    576         conv2d_65[0][0]                  \n",
      "__________________________________________________________________________________________________\n",
      "activation_65 (Activation)      (None, 7, 7, 192)    0           batch_normalization_v1_65[0][0]  \n",
      "__________________________________________________________________________________________________\n",
      "conv2d_61 (Conv2D)              (None, 7, 7, 192)    147456      mixed6[0][0]                     \n",
      "__________________________________________________________________________________________________\n",
      "conv2d_66 (Conv2D)              (None, 7, 7, 192)    258048      activation_65[0][0]              \n",
      "__________________________________________________________________________________________________\n",
      "batch_normalization_v1_61 (Batc (None, 7, 7, 192)    576         conv2d_61[0][0]                  \n",
      "__________________________________________________________________________________________________\n",
      "batch_normalization_v1_66 (Batc (None, 7, 7, 192)    576         conv2d_66[0][0]                  \n",
      "__________________________________________________________________________________________________\n",
      "activation_61 (Activation)      (None, 7, 7, 192)    0           batch_normalization_v1_61[0][0]  \n",
      "__________________________________________________________________________________________________\n",
      "activation_66 (Activation)      (None, 7, 7, 192)    0           batch_normalization_v1_66[0][0]  \n",
      "__________________________________________________________________________________________________\n",
      "conv2d_62 (Conv2D)              (None, 7, 7, 192)    258048      activation_61[0][0]              \n",
      "__________________________________________________________________________________________________\n",
      "conv2d_67 (Conv2D)              (None, 7, 7, 192)    258048      activation_66[0][0]              \n",
      "__________________________________________________________________________________________________\n",
      "batch_normalization_v1_62 (Batc (None, 7, 7, 192)    576         conv2d_62[0][0]                  \n",
      "__________________________________________________________________________________________________\n",
      "batch_normalization_v1_67 (Batc (None, 7, 7, 192)    576         conv2d_67[0][0]                  \n",
      "__________________________________________________________________________________________________\n",
      "activation_62 (Activation)      (None, 7, 7, 192)    0           batch_normalization_v1_62[0][0]  \n",
      "__________________________________________________________________________________________________\n",
      "activation_67 (Activation)      (None, 7, 7, 192)    0           batch_normalization_v1_67[0][0]  \n",
      "__________________________________________________________________________________________________\n",
      "average_pooling2d_6 (AveragePoo (None, 7, 7, 768)    0           mixed6[0][0]                     \n",
      "__________________________________________________________________________________________________\n",
      "conv2d_60 (Conv2D)              (None, 7, 7, 192)    147456      mixed6[0][0]                     \n",
      "__________________________________________________________________________________________________\n",
      "conv2d_63 (Conv2D)              (None, 7, 7, 192)    258048      activation_62[0][0]              \n",
      "__________________________________________________________________________________________________\n",
      "conv2d_68 (Conv2D)              (None, 7, 7, 192)    258048      activation_67[0][0]              \n",
      "__________________________________________________________________________________________________\n",
      "conv2d_69 (Conv2D)              (None, 7, 7, 192)    147456      average_pooling2d_6[0][0]        \n",
      "__________________________________________________________________________________________________\n",
      "batch_normalization_v1_60 (Batc (None, 7, 7, 192)    576         conv2d_60[0][0]                  \n",
      "__________________________________________________________________________________________________\n",
      "batch_normalization_v1_63 (Batc (None, 7, 7, 192)    576         conv2d_63[0][0]                  \n",
      "__________________________________________________________________________________________________\n",
      "batch_normalization_v1_68 (Batc (None, 7, 7, 192)    576         conv2d_68[0][0]                  \n",
      "__________________________________________________________________________________________________\n",
      "batch_normalization_v1_69 (Batc (None, 7, 7, 192)    576         conv2d_69[0][0]                  \n",
      "__________________________________________________________________________________________________\n",
      "activation_60 (Activation)      (None, 7, 7, 192)    0           batch_normalization_v1_60[0][0]  \n",
      "__________________________________________________________________________________________________\n",
      "activation_63 (Activation)      (None, 7, 7, 192)    0           batch_normalization_v1_63[0][0]  \n",
      "__________________________________________________________________________________________________\n",
      "activation_68 (Activation)      (None, 7, 7, 192)    0           batch_normalization_v1_68[0][0]  \n",
      "__________________________________________________________________________________________________\n",
      "activation_69 (Activation)      (None, 7, 7, 192)    0           batch_normalization_v1_69[0][0]  \n",
      "__________________________________________________________________________________________________\n",
      "mixed7 (Concatenate)            (None, 7, 7, 768)    0           activation_60[0][0]              \n",
      "                                                                 activation_63[0][0]              \n",
      "                                                                 activation_68[0][0]              \n",
      "                                                                 activation_69[0][0]              \n",
      "__________________________________________________________________________________________________\n",
      "flatten (Flatten)               (None, 37632)        0           mixed7[0][0]                     \n",
      "__________________________________________________________________________________________________\n",
      "dense (Dense)                   (None, 1024)         38536192    flatten[0][0]                    \n",
      "__________________________________________________________________________________________________\n",
      "dropout (Dropout)               (None, 1024)         0           dense[0][0]                      \n",
      "__________________________________________________________________________________________________\n",
      "dense_1 (Dense)                 (None, 1)            1025        dropout[0][0]                    \n",
      "==================================================================================================\n",
      "Total params: 47,512,481\n",
      "Trainable params: 38,537,217\n",
      "Non-trainable params: 8,975,264\n",
      "__________________________________________________________________________________________________\n"
     ]
    }
   ],
…
    "x = layers.Dropout(.2)(x)  # Your Code Here)(x)                  \n",
    "# Add a final sigmoid layer for classification\n",
    "x = layers.Dense(1, activation='sigmoid')(x) # Your Code Here)(x)           \n",
    "\n",
    "model = Model(pre_trained_model.input, x)  # Your Code Here, x) \n",
    "\n",
    "model.compile(optimizer = RMSprop(lr=0.0001), \n",
    "              loss = 'binary_crossentropy', # Your Code Here, \n",
    "            metrics = ['acc']\n",
    ") # Your Code Here)\n",
    "\n",
    "model.summary()\n",
    "\n",
    "# Expected output will be large. Last few lines should be:\n",
    "\n",
    "# mixed7 (Concatenate)            (None, 7, 7, 768)    0           activation_248[0][0]             \n",
    "#                                                                  activation_251[0][0]             \n",
    "#                                                                  activation_256[0][0]             \n",
    "#                                                                  activation_257[0][0]             \n",
    "# __________________________________________________________________________________________________\n",
    "# flatten_4 (Flatten)             (None, 37632)        0           mixed7[0][0]                     \n",
    "# __________________________________________________________________________________________________\n",
    "# dense_8 (Dense)                 (None, 1024)         38536192    flatten_4[0][0]                  \n",
    "# __________________________________________________________________________________________________\n",
    "# dropout_4 (Dropout)             (None, 1024)         0           dense_8[0][0]                    \n",
    "# __________________________________________________________________________________________________\n",
    "# dense_9 (Dense)                 (None, 1)            1025        dropout_4[0][0]                  \n",
    "# ==================================================================================================\n",
    "# Total params: 47,512,481\n",
    "# Trainable params: 38,537,217\n",
    "# Non-trainable params: 8,975,264\n"
   ]
  },
  {
   "cell_type": "code",
   "execution_count": 6,
   "metadata": {
    "colab": {},
    "colab_type": "code",
    "id": "HrnL_IQ8knWA"
…
